Zhuiy_approach/data/model_checkpoint.pth (torch, 594633 bytes, 27 tensors)

fc1.weight f4 [128, 163]
00000000: 6bcf 16bd 1cec 4d3d bd24 0bbd 50a1 cfbc
00000010: 1484 f13c b565 8b3d 334f 1dbd 881f db3c
00000020: 25c3 7bbd a00d 8c3d dc16 ee3c 5764 91bd
00000030: c986 003b 6893 37bc e39b 4cbd 9193 d53b
00000040: 009c ec3c f4b6 94bd 50d7 633c b75a 963b
00000050: 1180 02bd b77a ab3c 8a0c 3a3d b0e9 34bd
00000060: b685 55bd 4a23 753c 28fc 4c3d 38bc 63bd
00000070: 2724 1abd d067 8dbc 6459 e6bc d0f9 d43b
00000080: 3431 6bbd c049 53bb 925c 98bb 8ced b7bc
00000090: a41e f83c 9262 4abd f657 1ebd 0447 753d
000000a0: eb65 b9bc 78c1 e53c 6c1c 41bd e891 0e3d
000000b0: ee5c 843d 0812 74bc 805f 7b3a 2869 d03c
000000c0: e82d 663c f5f9 3a3c 1c5b e73c 07b4 903d
000000d0: a965 8fbd 09e6 fbbc b9fc 96bd f0f9 7ebd
000000e0: 3317 9dbd 8211 93bd 9264 083d e66d 48bd
000000f0: 30c8 65bd a3fd 7abc 4b74 82bd 6e3a 193d
00000100: 60c7 5b3d 940b a2bc 5967 373d f871 cd3c
00000110: aa1d 99bd 1985 843d 1a6c fc3c 14c6 79bd
00000120: b89c 95bc aa8f 1fbc 0b03 80bc c134 853d
00000130: 2593 153c d6fa 6f3d 6942 07bc b9a8 b6ba
00000140: f10c 8e3d 3ff7 913b dbf4 833d 8aed 8dbd
00000150: 624a 3a3c a5d4 10bd 821e 57bd 6972 7cbd
00000160: f70c 533d 06e8 97bd 32c4 6c3d d4b0 3c3d
00000170: 9900 91bd 87b3 863d 5229 01bd 9970 3fbc
00000180: 0546 8c3d 8599 8cbd 70c6 d9bc 3375 463d
00000190: 876c d0bc d092 883b 52f8 2ebd 399f 46bd
000001a0: b422 a0bd 800a c5ba e0c2 7b3d 785c 94bd
000001b0: a874 51bd 9ae9 b9bc dec4 033d b270 123d
000001c0: c803 cf3c 58db 1abc 3438 89bd 145f 973d
000001d0: 4598 6bbd 2050 07bd a261 97bd 6808 4ebc
000001e0: 7c71 7a3d 18ba cabc 241b cb3c ac12 8a3c
000001f0: 808f 38ba daa6 063d 0e3d 6bbd 9d6f 903d
00000200: dc73 de3c 1221 b2bc a84e 1f3c 6540 6ebd
00000210: b45f 663d b0b8 07bc 8ef9 8f3d 1ac6 98bd
00000220: f28f 8abd e05a 6bbb 0043 2d3d f74e 3fbd
00000230: fc83 933c 6ea2 04bd f0a0 313d 287c a53c
00000240: 0e6c 913d 1c15 f13c 70b1 c53b 7b4f 893d
00000250: 7829 223d 9875 44bc e9a2 13bd 5b7c 853a
00000260: 0d0e 813d a754 02bd 99c5 3c3c a70c 3a3d
00000270: 5a50 283d f29b 073d b6ae 9fbd bed8 993d
00000280: ca1e 363d d1bc 793c d16c 1bbd fda3 a43c
00000290: 211a f53c a2c2 413d ca3e 593d 27e8 303d
000002a0: 9529 183c 4e2a a3bd 9e59 6abc ed2d 3fbd
000002b0: 6ff0 cb3c 959f 73bc a770 6abd 892c b0bc
000002c0: 3f32 f23c 3663 b1bc 7b20 5dbd bccf 513d
000002d0: 6a6d 973d 0370 aa3d 161c 9bbd b741 083d
000002e0: 686f 03bd 74a9 20bd a6a0 623d 0eb3 71bc
000002f0: 3583 99bd 9517 8b3d 25ad 95bd 5a2d 453d
00000300: f138 87bd 108b 69bc 66a7 fa3c 2c55 20bd
00000310: 843a 6d3d 5496 433d 5ffd fd3c dabc 0a3c
00000320: 622a 27bd 0e6e 2a3d 9dfe acbd 70e3 d7bb
00000330: 3fe1 e2bc b6b3 3f3d f69e 543d b36d 37bd
00000340: b6ce 99bd 17e9 a53c 71d3 56ba 6ae5 7bbb
00000350: 782c 8ebc a795 4fbc c985 953d ec34 98bd
00000360: d12f 873d a00a 90bd 0142 38bd 3fc1 91bd
00000370: 777d cb3b d929 2c3c 4d14 10bd 804b 663d
00000380: 3fef 733d fc43 4a3d e556 9dbc c8c4 72bc
00000390: 00e6 303c c9a5 08bc 72f4 a63b 0b30 853d
000003a0: 87e2 a3bd 582a 453d e8cd c2bb 92f9 753d
000003b0: 2a15 72bd 1d3d 22bd 9961 92bd f459 293d
000003c0: 1e7d 68bd 9ee4 143d 3861 97bd 7672 763d
000003d0: f88a 3e3d 4ee6 de3b bad9 d0bc 17aa a8bc
000003e0: c301 3fbd db63 99bd 1b0b 25bd 0693 47bd
000003f0: b754 8cbd 4742 95bd 5c14 4abd 6e95 88bd
-0.036818903 0.050274 -0.033970583 -0.025345474 0.029481925 0.068065085 -0.03840561 0.026748434
-0.0614654 0.06838536 0.029063635 -0.070992164 0.0019611588 -0.011204578 -0.049953353 0.0065178354
0.02888298 -0.07261458 0.013906315 0.004588451 -0.031860415 0.020932538 0.045422114 -0.044168174
-0.05212947 0.014962027 0.050045162 -0.05559942 -0.037632134 -0.017261416 -0.028118797 0.0064995065
-0.05741997 -0.0032240003 -0.004649707 -0.022452138 0.030288048 -0.04941041 -0.038658105 0.05988218
-0.022631606 0.028046355 -0.047146246 0.034807116 0.064630374 -0.014896877 0.0009589121 0.025440767
0.014049031 0.011412133 0.028241687 0.070655875 -0.07001812 -0.030749338 -0.07372422 -0.062250078
-0.076704405 -0.07181074 0.033299036 -0.048932932 -0.056099117 -0.015319261 -0.063698374 0.03740924
0.053656936 -0.019780912 0.044776294 0.025078759 -0.07476361 0.06470699 0.030813266 -0.060979918
-0.018263206 -0.009738842 -0.015626451 0.06504203 0.00912932 0.058588825 -0.0082555795 -0.0013935781
0.06936062 0.004454523 0.06443187 -0.069300726 0.011370273 -0.035359044 -0.05251933 -0.061632548
0.051526036 -0.07417302 0.057804294 0.046067074 -0.07080192 0.06577211 -0.031533547 -0.01168456
0.06849293 -0.06865219 -0.02658388 0.048451614 -0.025442375 0.004167892 -0.042717285 -0.04849169
-0.07819119 -0.0015033036 0.061465144 -0.072441995 -0.051136643 -0.022694398 0.03217017 0.035752006
0.025270358 -0.00945171 -0.06700173 0.073911816 -0.057518262 -0.033035398 -0.07391669 -0.012575246
0.061143383 -0.02474694 0.024793215 0.016854607 -0.0007040426 0.032873966 -0.057431273 0.070525385
0.027154855 -0.021744285 0.009723343 -0.05816688 0.056243613 -0.008283779 0.07030021 -0.0745966
-0.06765737 -0.003591232 0.042300224 -0.046706166 0.018007271 -0.032381468 0.043366373 0.020200804
0.07100688 0.029429011 0.006033115 0.06704613 0.03959033 -0.011990927 -0.036044035 0.0010184156
0.06301508 -0.031819012 0.01152172 0.045422222 0.041092254 0.033107705 -0.07796995 0.075120434
0.044462956 0.015242771 -0.037945572 0.020097727 0.029919686 0.047304757 0.053038396 0.043190148
0.009287258 -0.07967053 -0.014303593 -0.046674658 0.024894921 -0.01486959 -0.05723634 -0.021505611
0.029564975 -0.021653753 -0.053986054 0.0512235 0.07393916 0.08322146 -0.07573716 0.033265796
-0.032088667 -0.039224103 0.055328988 -0.014752163 -0.07495729 0.06791607 -0.07308415 0.048138954
-0.066026576 -0.0142543465 0.0305974 -0.039143726 0.057917133 0.047750786 0.031004606 0.008467877
-0.040811904 0.041608863 -0.08447001 -0.006588392 -0.027695296 0.046802245 0.05190941 -0.04478235
-0.0751013 0.020252747 -0.00081949594 -0.0038436302 -0.017355189 -0.012669957 0.07300908 -0.07431969
0.06600917 -0.070332766 -0.04498482 -0.07116937 0.006210025 0.010508024 -0.03517561 0.056224346
0.059554335 0.04938124 -0.019206474 -0.014817424 0.010797024 -0.0083403075 0.005095058 0.06503304
-0.08002191 0.048136085 -0.005944956 0.060052462 -0.059102215 -0.039609063 -0.071475215 0.04134555
-0.056759946 0.03635084 -0.0739159 0.060167752 0.04651925 0.006802357 -0.025494445 -0.020588918
-0.04663254 -0.07489749 -0.040293794 -0.048724197 -0.068520956 -0.07288032 -0.049335822 -0.066691265

fc1.bias f4 [128]
00000000: dbe2 263d 26c3 213d 28b5 563d 4030 ccbc
00000010: 46e7 6c3d a782 9b3b 4050 6fbd cd39 553c
00000020: 28d9 e8bc b520 53bd c1d1 e33c edf2 28bd
00000030: 3e92 ad3d 57a7 723d 41ec 9a3d 67be 3dbd
00000040: 95cf 1f3d b8a9 223d 688b 86bd 9352 a53b
00000050: 5299 6fbd d275 90bc f214 85bd 8022 7dbd
00000060: 1595 b93c de69 49bd 2e5e 043b a025 53bd
00000070: 926f a6bc 7e28 4dbc f8ef 013c 2387 8fbd
00000080: a1a9 3ebd 18ef 17bd cfdc c63c 5876 723d
00000090: f572 d3bc b2b3 813b b686 3f3d 5751 d0bb
000000a0: 796d 72bd c85b 023d 64d2 f6bc 25a3 0f3d
000000b0: 16e1 663d 4074 4a3d 550c f4bb 6532 9b3a
000000c0: f820 26ba 621f 62bd a56c 833d da3c 54bd
000000d0: eb0e 80bc 7482 a73b e7d1 8fbd 7f0a 56bd
000000e0: 2c07 403d 7eee 563d 0f99 45bb d248 2ebd
000000f0: 943f 0f3d 3a90 853d 4a52 1a3d 90d7 393d
00000100: c005 4bbc a2bf 95bd a434 3bbc 69e6 3c3c
00000110: ac05 ab3d f940 9fbd 8a8d 103d 7df7 edbb
00000120: d5ae c2bc 447c 26bd 1392 9c3d 696c 963d
00000130: f869 36bd d300 693d a432 4b3d 5caf 5cbd
00000140: 3726 95b9 4d11 803d d581 0d3c 6252 3b3d
00000150: 0c50 57bd 938c 5f3d 2f83 7a3d 3451 4cbd
00000160: 7b96 9dbd 9ad3 73bd 1df2 68bd 9266 a43d
00000170: c1ff a2bb 4746 4e3c 9a41 a03d df37 623d
00000180: 3463 2cbd fdee 42bd d2e2 783c 0abc 86bc
00000190: 21b0 913d 6d08 0c3d f6bf 69bd 60c8 74bd
000001a0: e7c2 c1bb 9d69 bfbc ee2e 82bc 4faf 5bbd
000001b0: 1d73 7a3c e103 b03d 4797 0f3d 5101 a53b
000001c0: 9d14 57bd eb3f 92bd 1f63 613d 76be c6bc
000001d0: 4872 863d eb7b 7c3d f6a0 54bd 8183 283d
000001e0: ebc0 433d 967b 2e3d 9425 94bd a84e 143c
000001f0: bb56 2cbd 8b19 26bc 932b a53a d580 7d3c
0.04074369 0.03949275 0.052418858 -0.024925351 0.057837747 0.0047457996 -0.05842614 0.013014269
-0.02842386 -0.051544864 0.02780998 -0.041247297 0.08475159 0.05924162 0.07564593 -0.04632416
0.039016325 0.039712638 -0.065695584 0.005045244 -0.058495827 -0.017634306 -0.064981356 -0.06180048
0.022654096 -0.04917323 0.0020197737 -0.051549554 -0.020316873 -0.012521861 0.007930748 -0.07008197
-0.04654849 -0.037093252 0.024275212 0.059194893 -0.025811652 0.003958189 0.04675933 -0.0063573527
-0.059186433 0.03182581 -0.030129619 0.035067696 0.056367002 0.04942727 -0.007447759 0.001184058
-0.000633731 -0.05520571 0.06417207 -0.051815845 -0.015632113 0.005111987 -0.070224576 -0.052256104
0.04688184 0.052473538 -0.0030151044 -0.042549916 0.034972742 0.0652165 0.037676133 0.045371592
-0.012391508 -0.07311942 -0.011426125 0.011529543 0.08350691 -0.077760644 0.035291232 -0.007262169
-0.023765007 -0.040645853 0.07645049 0.07344896 -0.044534653 0.05688555 0.04960884 -0.053878173
-0.00028447967 0.062533 0.008636911 0.045732863 -0.052566573 0.05457742 0.061160263 -0.04988213
-0.076947175 -0.05952797 -0.056871522 0.08027376 -0.004974336 0.012589998 0.078250125 0.055229064
-0.042086795 -0.0475912 0.015190797 -0.016447086 0.07113672 0.034187723 -0.057067834 -0.059761405
-0.0059131267 -0.02336579 -0.015891518 -0.053633984 0.015286234 0.0859449 0.03505638 0.0050355573
-0.052509893 -0.07141098 0.05502617 -0.02426074 0.06564766 0.061641615 -0.051911317 0.041141037
0.047791403 0.04259833 -0.0723373 0.009051956 -0.0420749 -0.010137926 0.0012601487 0.0154726105

fc2.weight f4 [64, 128]
00000000: 4c7f 823d df66 65bc 6465 803d 955e 1c3c
00000010: ea35 323d 4014 27bd 8de1 21bc 2a44 d3bb
00000020: 659b 28bd d0a1 8fbd d376 54bd ee10 303d
00000030: 713a 10bc 1c1f f13c 5af6 5ebd d310 473d
00000040: 3600 19bd 8243 883d 7ff0 013d 3001 213d
00000050: 6d3c 73bd 957f 933d 1c14 9cbd 0c14 72bc
00000060: 6806 5dbb 3f16 0cbc 5df3 e2bc 5c52 e2bc
00000070: 227f a03d 6b3e a73c c64c 893d 6821 8a3c
00000080: d839 133d c771 0a3d 91d7 6dbd 730a a83c
00000090: 765a 513d 8e51 67bd 1dbb 233d 3cb1 e8bb
000000a0: f554 993d c748 aebd ba7c eb3b f545 b03c
000000b0: f7eb f0bb 3ef0 69bd 0687 b3bd 1613 543c
000000c0: bdde ccbc 7c9a 47bd 5d0d 59bd 5b8a a13d
000000d0: 41ab 48bd 0a95 d9bc 0131 f53c 029e e43c
000000e0: efb8 bc3b a298 5bbd 9319 aabc 654c 93bd
000000f0: 79b4 c13c e902 093d 4cf1 55bd 7e4a 84bd
00000100: b8ef b23b b5d1 253d a65b aa3d 5c61 cf3c
00000110: 8955 eabb 4658 a9bc e812 0dbc 620d b13b
00000120: bcc5 43bd 8ae1 953d 76ee 013c 2ace bc3c
00000130: 14ef 84bd 279b b2bd 761e bab8 146f b93c
00000140: deb8 afbd 9cfd 29bd f098 49bd da22 663d
00000150: 277b 283c e32e 053c 0df8 b4bb dfc9 aabd
00000160: 24b7 85bd 3f96 0dbd c00d 66bd 9766 243d
00000170: dbe5 843d af00 38bd b5ce 993d 12f6 a83c
00000180: 0a57 6b3d b7a1 fd3c 6a92 7b3d a710 503d
00000190: d601 823d 2e00 99bd 70f9 a23c 7ee1 89bd
000001a0: fc4f f93c bb2a a33d f6a6 593d 87fd b43d
000001b0: 97da 3c3d 3617 9b3d 21b8 823b 0c2e 8e3c
000001c0: 9be3 6e3d cc8b 4b3d e409 1b3c 99b0 8c3d
000001d0: 723a cc3c 79fb acbc b3c8 69bd d122 cbbc
000001e0: ea8e 89bd f044 5bbc 4d78 723d 5f37 5abd
000001f0: 84b0 673c 42c1 8e3c f5fb 343d 7a15 623d
00000200: 64f2 ed3b 89f4 d2bc 77fe 74bd 0972 503d
00000210: 81e1 233c 8b97 3bbd 56a0 8f3d c2da aa3d
00000220: cc39 7b3a 3df3 873d 4cf1 32ba 933e 48bd
00000230: fd7d 923d 0fc7 fcbc 05ad 26bd e3fb 0fbb
00000240: 34de 203d bcf3 7c3d cb03 7d3d 31d3 d73c
00000250: 2a54 abbc 090c a73d ae25 70bd 319f 883d
00000260: c970 833d 8531 1a3c 3130 90bd 8712 513d
00000270: dbc4 5ebd 9195 d0ba d071 9b3c dc54 a93d
00000280: 54fe 37bc a0f6 f3bc d091 18bd ad0b a4bd
00000290: d92a 87bd d34b aabd 6096 283c 0998 783d
000002a0: 0b3e ca3b 6adc b23d 5f03 18bd 489b 68bd
000002b0: c338 b03d 25b7 f53b cbae 5c3d 0d8c e73c
000002c0: 083e ba3c 0174 abba 9e2c bbbc c5b5 873d
000002d0: 6729 863c 40a1 62bc 510e 0cbd 6a5d f6ba
000002e0: 07ed 2c3c ed7b 4fbd 4b39 7bbd 6bbd 8fbc
000002f0: a0f0 393c bf1b 003c 67e4 b83d 5fcb 35bd
00000300: 418a c53d 804b 21bc 2a5f f8bb 553e e1ba
00000310: 89e3 b23c 514c a63d e65c 58bd 3848 ad3d
00000320: 10ea ad3d ba4d 863d c51f 41bd c6e7 123d
00000330: 84ee d3bc f745 c3bc b7dd e83b 2f7d c53c
00000340: be7f ac3d eeaa 83bb 87b1 7c3d 091d 8f3d
00000350: bcfe 963d b923 5abc 5b4c 0f3b ae87 83bc
00000360: 8991 173b d509 62bc 2951 a93d 76ff 0d3d
00000370: 7f2a 1a3c f6d3 1f3d 509e a73c dcfa 223d
00000380: 2851 81bd 694a f53c 6b66 973d 0680 903d
00000390: 9c84 c83c f961 863d 26ca 1a3d 51f8 46bd
000003a0: bccc db3b 4f8c b13d 6379 90bd 7e75 9e3d
000003b0: 1744 1bba 0bfe 893a 8163 933d 58e2 96bc
000003c0: 43e2 5cbb 519b febb ad30 913d 5b92 99bd
000003d0: 2978 553d 7538 7b3d 312d e8bc b65c 913c
000003e0: 581f b2bb c39c acbd 078b 6a3c 0ad6 913d
000003f0: 3caf 383d 0bcb dcbc b917 233d b982 a13c
0.06371936 -0.014001577 0.06269339 0.0095440345 0.043508448 -0.040790796 -0.009880436 -0.006447335
-0.04116382 -0.07013285 -0.051871132 0.042984895 -0.008802996 0.02943378 -0.054434158 0.04860003
-0.037353717 0.06653501 0.031723496 0.039307773 -0.0593838 0.07202069 -0.07621023 -0.014775287
-0.0033725742 -0.008550226 -0.027703935 -0.027627163 0.07836749 0.020415505 0.067040965 0.016861632
0.035943836 0.033799913 -0.05806691 0.020512795 0.05111166 -0.05647426 0.039973367 -0.007101206
0.074869074 -0.08509975 0.0071864994 0.021517733 -0.007352348 -0.05711388 -0.08765988 0.012944004
-0.025008554 -0.048731312 -0.05299126 0.07887717 -0.048991445 -0.026560325 0.029930593 0.027907375
0.0057593505 -0.05361236 -0.020764148 -0.071923055 0.023645626 0.03345004 -0.05223207 -0.06459521
0.0054607056 0.040483195 0.08318262 0.02531498 -0.00715131 -0.020671975 -0.008610465 0.0054032067
-0.047795996 0.07318409 0.007930389 0.023047525 -0.06490913 -0.08720999 -8.874845e-05 0.022635974
-0.085801825 -0.041501626 -0.04921812 0.05618558 0.010283268 0.008128854 -0.005522734 -0.08339285
-0.06529072 -0.034567114 -0.056165457 0.0401369 0.06489154 -0.044922527 0.07510129 0.020625148
0.057456054 0.0309609 0.06141893 0.05079713 0.063480064 -0.074707374 0.019894332 -0.06732462
0.030433647 0.079671346 0.053137742 0.08837419 0.0461069 0.075727865 0.003989235 0.017355941
0.05832253 0.049693868 0.009462807 0.06869621 0.024930213 -0.021116005 -0.057076167 -0.024796875
-0.06716712 -0.013383135 0.05919676 -0.053275462 0.014141206 0.017426137 0.044185597 0.055196263
0.007261561 -0.02575137 -0.05981299 0.050890002 0.010002495 -0.04579882 0.070130035 0.08342506
0.00095835025 0.06638191 -0.0006826117 -0.0488878 0.071529366 -0.030856637 -0.040692348 -0.0021970205
0.03927441 0.06175588 0.061771195 0.026345821 -0.020914156 0.081565924 -0.058629684 0.06670988
0.064179964 0.00941122 -0.07040442 0.05104306 -0.054386955 -0.0015913715 0.018975168 0.08268139
-0.01123007 -0.029780686 -0.037248433 -0.080100395 -0.065999694 -0.083152436 0.010289758 0.060691867
0.006171947 0.08733447 -0.03711259 -0.056788713 0.086045764 0.007498639 0.053877633 0.028265024
0.022734657 -0.0013080837 -0.022848424 0.06626467 0.016377164 -0.01383239 -0.03419334 -0.001879615
0.010554559 -0.050655294 -0.061333936 -0.017546376 0.011348873 0.007819115 0.09027939 -0.044383403
0.096455105 -0.009844661 -0.007579704 -0.0017184714 0.021837013 0.08120025 -0.05282297 0.0846104
0.084919095 0.06557794 -0.04714944 0.035865568 -0.025870569 -0.023837073 0.0071065086 0.024107544
0.084228024 -0.004018179 0.06169274 0.0698796 0.073728055 -0.013314181 0.002186558 -0.016055908
0.0023127517 -0.013796289 0.08267433 0.034667455 0.009409546 0.0390205 0.020461231 0.03979002
-0.063143075 0.029942708 0.073925816 0.070556685 0.024477296 0.065616556 0.03779044 -0.048576657
0.006707756 0.0866934 -0.07054403 0.077372536 -0.0005922927 0.0010527981 0.07196713 -0.018418476
-0.0033704198 -0.00776998 0.07089362 -0.07498618 0.052116547 0.06133314 -0.028341861 0.017744403
-0.0054358654 -0.084283374 0.014315373 0.07120903 0.04508899 -0.026952287 0.039817546 0.019715654

fc2.bias f4 [64]
00000000: bb4e c83c 9ac3 c43d b458 6bbd efdd 813d
00000010: 0d13 d6bc e637 b13d d373 69bd 6fa5 6c3c
00000020: dc0f 743d 4699 80bb cd04 f6bb b96d 93bd
00000030: b166 35bd 803d 913d 59d9 b2bd 337b b0bd
00000040: 5b6f babc b546 a63c d4b1 63bd 3c91 843d
00000050: 7336 a03d 9e3c 93bd 1316 aebd be0f 453d
00000060: 4c1c 183d fc7e c2bc c118 5dbd b7b6 903d
00000070: 63f2 8cbc 0f27 493d 9d85 a13d 91d3 bb3c
00000080: e995 9cbd 5158 84bd 86f7 33bc db43 01bc
00000090: 5dae 293d d0b2 8c3d 76be 38bd 8992 ad3c
000000a0: c7c4 523d 9b0b b4bd dd7c acbd a716 d03c
000000b0: 4299 953d 9b04 0f3d 40d9 fe3b b56d e73b
000000c0: d66e 9abd d821 b63d 62b9 a3bd 38d9 98bb
000000d0: 1a23 06bd 2097 b2bd 8491 e5bc 5ad0 163d
000000e0: 15ca 8ebd ca96 3db8 c5ce f0bc bb63 7bbd
000000f0: 6a60 6dbd 2ab2 6cbc ef4e 93bc 1eb7 6d3d
0.024451604 0.096076205 -0.05745764 0.063411586 -0.026132131 0.0865324 -0.056995224 0.014443739
0.059585437 -0.0039245216 -0.0075078965 -0.07198662 -0.044287387 0.07091808 -0.08732862 -0.086172484
-0.022758177 0.020297388 -0.055589512 0.06473014 0.07822885 -0.07189296 -0.08500304 0.048110716
0.03713636 -0.023742191 -0.053978685 0.070661 -0.017205423 0.049109515 0.07886813 0.022928031
-0.076457806 -0.064621575 -0.010984307 -0.007889713 0.04142605 0.06870043 -0.045103513 0.021188037
0.051457193 -0.08791276 -0.08422253 0.025401426 0.07304622 0.0349165 0.007777363 0.0070626386
-0.075406715 0.08893174 -0.07994343 -0.0046645664 -0.03274832 -0.08720231 -0.028023489 0.036819793
-0.06972138 -4.5201545e-05 -0.02939547 -0.061374407 -0.057953276 -0.0144467745 -0.017981974 0.058035962

fc3.weight f4 [52, 64]
00000000: f0e0 b43d 6f07 babd e055 72bc 0b16 0e3b
00000010: 0b34 763d 4405 e6bd 7eb7 8bbd 1f47 e6bd
00000020: 74b1 47bd 7752 58bd e9fa 9ebc 969d a73d
00000030: 033e 9e3c 84e3 a43d 37c7 c93d 40ef e73d
00000040: 00b2 673d 5bcd bbbc f55a 80bc bdf5 523d
00000050: 90ce 95bd 4e86 c43d 161f a03d f4f9 e9bc
00000060: e6a7 23bd 3e27 903d c2c4 d73c d75d 1b3c
00000070: afb0 3d3d e91a 823d 7276 943d d2de 83bc
00000080: 1857 dfbc 2b1b 64bc 22cb 683d 3ad7 89bd
00000090: 3b65 963c 457a 813d 41a6 503d 682f 1dbd
000000a0: 5599 c6bd fa09 ddbd e6eb 993d 4b08 5d3d
000000b0: e56f babb 9672 f53d 51be c1bc d15f 32bd
000000c0: d4a1 0fbd d01e c03c 92f8 e3bd a899 adbd
000000d0: f284 f0bd da4e 89bc 83ae b43d 1f4f e0bc
000000e0: 7afb ffbd df0c b03c 19f9 d13d 7f3f ffbd
000000f0: cc43 ce3d e1f3 abbd d30d 86bd 590f 9c3d
00000100: 911b 053e 6a0d 163c 806f eebd e273 3dbd
00000110: 102f cf3c 9846 cfbd 003f 72bc 0a21 fd3b
00000120: 49b3 c83c 7d5c f4bd 87a4 e9bd 5e63 b6bd
00000130: 0843 d63d 7ae9 72bd 2f88 3e3d 2006 123c
00000140: 28c4 19bd 3b05 bebd f2c7 81ba 5739 a3bd
00000150: 3c1e 73bd b834 aebc 65da c23c 7b8b ea3d
00000160: 3506 143d c0f7 5abb f122 edbd 590d 053e
00000170: 0cc9 913c edc0 db3d 279f 34bd 2bc5 ecbd
00000180: 6cfc a23d 239f b33d 39d0 223d 7257 febd
00000190: 1ff9 013e 2828 373d 3a72 58bd 46e6 043d
000001a0: 26e1 a33d 8611 9c3d 891b 943c 2642 a23d
000001b0: 9ff6 883b 1636 93bd 4e2b 463c f802 afbd
000001c0: 644f 283d 4fb5 f43d 76e9 cf3d 5a7e f83c
000001d0: e461 ac3b 57b0 e23c d180 aebb 706e 5f3d
000001e0: 9f8d ce3c ad1d 983d c71d 023e 1aa1 30bd
000001f0: 687f fabd ae6c ff3d a2c0 6c3d 3f1f babc
00000200: 8510 adbd 4233 80bb 7068 c1bd 81bc 653c
00000210: 79ce 243d 3ac8 783b d078 483c e593 093e
00000220: 9e07 d8bc 3682 283d e839 6cbd 4e8c 063d
00000230: efdf a1bd 966c f83d 2c72 c5bd a025 2abc
00000240: 2bf8 dabd 4fea f4bd 3ca4 38bd fbb8 60bd
00000250: bed5 c83d 56e8 e4bd 4b08 e03d 31d3 c7bd
00000260: f2a8 95bd 50a6 11bd 08ff 90bd 9e93 3dbd
00000270: ff8d 84bc 0693 543d 3a4c d3bd a064 013e
00000280: 90c2 98bc bf0f 68bc 644c f83d c49a 3cbd
00000290: 5a70 ddbc 1cbd e13b 97b0 07bd a9d2 0fbd
000002a0: c6c3 f83c e864 ff3d 9a39 e33d 1ff9 e23c
000002b0: d8a3 a73d 6ec4 6dbb e8e4 ff3d 1f6c ae3d
000002c0: 00f9 173b 547b ddbd a850 ce3d 279b 963d
000002d0: f2b1 89bd 44a3 b6bc 8809 ffbd 08b1 c33d
000002e0: 04c4 fd3d 4695 353d 15a2 e4bd fdd7 033e
000002f0: e100 923d 64ec 253d ea03 3e3c 8c5d b4bd
00000300: 990e 4abd 9635 8a3c 8a88 dc3d ab06 3bbc
00000310: ec03 8fbd 38a2 4c3c d2c7 d03d 298e ecbd
00000320: 1285 65bd cf55 b63d c9f3 ba3d 332f 223d
00000330: c798 c9bd f973 d4bd 2984 9f3d 9449 75bd
00000340: 617e 053e 1fde b2bd d430 be3d 60b1 12bd
00000350: 10ac 8b3d 8c25 4ebd 854d 933d cb1a 29bd
00000360: f999 9abd 84a8 0a3d 7d0e 20bd 9ceb 4bbd
00000370: 7f42 cabd 8ef9 373b 91b3 773d e926 efbd
00000380: 0821 d4bd f026 c53c d03e a33d 9e4a 133c
00000390: c705 0f3d d009 abbd 6c9b a63d a817 8bbc
000003a0: 6599 943c 68ae 413d 30d6 9e3c f6f7 763c
000003b0: 4d9d f7bd 5491 c8bc 786d fa3d ded3 7cbd
000003c0: 0465 c63d 589c 9c3c e48e a5bd d0e9 c73d
000003d0: ead7 3c3b 0af8 d73b d937 a6bd 2af7 52bd
000003e0: c835 8c3d d4f3 e43d 5516 d73c 5d10 e13d
000003f0: 5282 06bd dea7 dcbd da3d f5bd f384 a5bd
0.08831966 -0.09083449 -0.014790982 0.002168062 0.060108226 -0.11231473 -0.06822108 -0.11244034
-0.048753217 -0.05281302 -0.019406753 0.08184354 0.019316679 0.08051208 0.0985245 0.1132493
0.05656624 -0.02292507 -0.015668372 0.051503886 -0.07314789 0.09595929 0.07818429 -0.02856157
-0.039955042 0.07038735 0.026338939 0.009482822 0.046311077 0.06352789 0.07249154 -0.01609746
-0.02726321 -0.013922493 0.056834348 -0.06730504 0.018358817 0.06322149 0.050939802 -0.03837529
-0.096972145 -0.107929185 0.07515697 0.053962987 -0.0056896084 0.11984746 -0.02365032 -0.04354841
-0.03506644 0.023452193 -0.111313954 -0.08476573 -0.11744107 -0.016761232 0.08822348 -0.027381478
-0.12499137 0.021490512 0.1025259 -0.12463283 0.10071525 -0.083961256 -0.065456055 0.07620115
0.12998797 0.009158472 -0.11642361 -0.046253093 0.025290996 -0.101208866 -0.014785528 0.007724886
0.024499552 -0.11931703 -0.11408334 -0.089056715 0.10462004 -0.05930469 0.046516594 0.008912593
-0.037540585 -0.092783414 -0.0009901507 -0.07969921 -0.059355006 -0.021265373 0.02378578 0.11452385
0.036138732 -0.003341183 -0.1157893 0.12993373 0.017796062 0.10730157 -0.044097092 -0.11561044
0.07958302 0.08770587 0.039749358 -0.124190226 0.12692688 0.04471603 -0.05284331 0.03244617
0.08001928 0.0762053 0.018079536 0.07922773 0.00417979 -0.071880504 0.012095286 -0.08545488
0.041091338 0.11948644 0.10151951 0.030333687 0.005260693 0.027671976 -0.0053254147 0.05454868
0.025214015 0.07427535 0.12706672 -0.04312239 -0.12231332 0.12471901 0.057800896 -0.022719977
-0.084504165 -0.0039123604 -0.09443748 0.014021994 0.04023597 0.0037961141 0.012235835 0.13435324
-0.02637082 0.041139804 -0.05767241 0.03284865 -0.0790404 0.12130086 -0.09640917 -0.010384947
-0.106918655 -0.11958753 -0.0450785 -0.05486391 0.09806393 -0.11177127 0.10939082 -0.097570784
-0.073076144 -0.035559 -0.07079893 -0.046283357 -0.01618099 0.051898025 -0.103172734 0.12636042
-0.018647462 -0.01416391 0.12123945 -0.046046034 -0.027031112 0.0068889987 -0.033127394 -0.03511301
0.03036679 0.12470418 0.11094971 0.02770668 0.081855476 -0.0036280411 0.12494832 0.08516716
0.0023189187 -0.108145386 0.10073978 0.07353812 -0.067233935 -0.022294648 -0.1245299 0.095552504
0.12390903 0.04433181 -0.11163727 0.12875362 0.07129074 0.040508643 0.011597613 -0.08806905
-0.049330328 0.016871255 0.1076823 -0.011415164 -0.0698317 0.012489848 0.10194363 -0.115505524
-0.05603511 0.089030854 0.091285296 0.039595794 -0.09843593 -0.103736825 0.077888794 -0.059884623
0.13036491 -0.087337725 0.09286657 -0.03581369 0.06819928 -0.050328776 0.0719252 -0.041285317
-0.07548899 0.033852115 -0.039076317 -0.04978524 -0.098759644 0.002807233 0.060473982 -0.116773434
-0.10357863 0.024066418 0.07970965 0.008989958 0.03491762 -0.08351481 0.08135113 -0.016979054
0.01813955 0.047285467 0.019389242 0.015073767 -0.120905496 -0.02448336 0.12227911 -0.06172549
0.09687236 0.01911752 -0.08083895 0.09761393 0.0028815218 0.006590848 -0.08116121 -0.051505245
0.068461955 0.11179319 0.026255766 0.10989449 -0.032839127 -0.107742056 -0.11974688 -0.08081999

fc3.bias f4 [52]
00000000: 4ebc f9bd 5c34 943d 7903 933d 6a5e ddbd
00000010: aa45 7ebd 729e cabc 1048 dbbd 91ae 25bb
00000020: 6874 a1bd bb72 473c e1ad d93d bfc0 e23d
00000030: dcef b63d 8de0 ae3d a653 8d3b 63fa aebd
00000040: d650 b43d 32f6 f03d b895 fdbd 58c0 d0bd
00000050: 6608 35bd a9ff f43d af6f 8c3d 2b26 2abd
00000060: 196e 4d3d b74e 39bd c8f0 3e3d 9dc8 543d
00000070: bc8b 9d3d 8771 c93d 9417 3b3d 4886 553d
00000080: d8ed 62bb da6a d83d f516 ae3c e8d2 b5bd
00000090: b147 803c 544b d23d c503 23bd d7a2 2cbd
000000a0: 0eed 173d e9ef 173d 3d36 553d ea1d eb3d
000000b0: ad94 b83d 0ecd 96bc 5118 a8bc 4854 bf3d
000000c0: ef7f a53d 17b4 adbd 075c c63d 0599 b33c
-0.121941194 0.07236549 0.07178397 -0.10809024 -0.062078156 -0.024733756 -0.10707104 -0.0025281052
-0.07883531 0.01217335 0.10628868 0.1107192 0.08932468 0.085389234 0.00431295 -0.08543851
0.08804481 0.11765708 -0.12382072 -0.10192937 -0.044197462 0.11962826 0.068572395 -0.041540306
0.050153825 -0.045241084 0.046616346 0.051949132 0.07692668 0.09836107 0.045676783 0.052130014
-0.003462663 0.10567255 0.021251181 -0.08878118 0.015659185 0.10268274 -0.039798517 -0.042147484
0.037091307 0.03709403 0.05205368 0.11480315 0.09012733 -0.018408325 -0.020519407 0.09342247
0.08081042 -0.08481615 0.096855216 0.021923551

fc1.weight f4 [96, 163]
00000000: 6e5e c7bc 0476 453d 346e 46bd a035 50bb
00000010: 82a2 213d a48e cf3c 684a 803c 7cf3 8c3d
00000020: 2a89 5fbd c313 24bd 2042 943d a8d4 72bc
00000030: e098 133c 3af4 883d 05b9 98bd 9217 47bd
00000040: 38fd 373d 3e15 1a3d dd08 75bd 82dc 8ebd
00000050: 357d 27bd 90c2 70bd 44e3 1a3d 1ae5 f1bc
00000060: d00d 02bc b0ba 93bd b833 49bd b8e6 963d
00000070: 11f1 79bd c00a b33b d048 ee3c d00b 6f3d
00000080: a0d7 19bb 40f5 6e3d 206d fcbb c0b3 fb3c
00000090: da2b 10bd 4826 b93c b83c 62bd fa5d e9bc
000000a0: d827 003d 78b1 3dbc 8092 8e3d 046c f73c
000000b0: aa25 85bd 34c9 82bd f075 5ebd 5e2e 9f3d
000000c0: 1c46 923d 22e1 37bd 64f0 e5bc eba5 2cbd
000000d0: cea5 333d 5239 12bc d9e2 8fbc b952 67bd
000000e0: 8801 963c f8f0 2cbb 3d2d 97bd 13a2 82bc
000000f0: 8c95 01bd bbfe 82bd 6a94 3cbd 3e85 d03b
00000100: 54a2 4d3d b12a 88bd ddb0 7abd 8efa 14bd
00000110: f457 033d 4d54 35bd 544a 9bbd 145a 7a3d
00000120: 2eda 163d 9ed1 42bd 3eab 1c3b f172 e5bc
00000130: 6357 d93c c0e3 7dbd 540c 8f3c fd97 6ebd
00000140: b09c 2f3d 7e42 513b 60ae 2fbd 63c4 35bd
00000150: e57e 23bc 2573 d5bc c14a 7cbd 5cb8 993d
00000160: 6ac6 48bd 40a3 3d3d c336 f1bc 4c24 2f3d
00000170: 9cad 9a3c d05a 253d e8cf 173d bfc0 393b
00000180: f23a cebc ce9a 74bd dc88 423d ae9d 7e3c
00000190: dda2 a0bc e608 fcbc 06ba 7fbc 302d 81bd
000001a0: 6f80 0a3d 6f1e 82bd 0b63 073c 6efa a5bc
000001b0: 6d04 913c d6c7 99bd c107 80bc ba2e 18bd
000001c0: ef4d 4a3c 008b 813d 805c 6bbd 916d d0bc
000001d0: 5962 6abd 5dd5 2dbd 4c06 c5bc 0e08 993d
000001e0: e84f 1f3d 187f 773c 53f2 1d3d 23c2 c43c
000001f0: 64e4 54bd 46a6 0fbd 8d2b 9bbd 9c01 463d
00000200: 68d7 89bd fefb e33b b05e 15bd cd46 833c
00000210: 70c4 45bd 96b5 2a3c 4042 763c f953 0dbc
00000220: 3c05 f43c df5f 0e3d 10af f73b e04c e03b
00000230: 6a61 053d a9fa aa3d 1a28 53bd f830 4e3c
00000240: 364d 573d 8654 303c 84d6 6d3c ef73 a23d
00000250: 559d dcbc a558 77bd 7228 55bd 45d9 02bd
00000260: bb79 523d 3d93 c13c 74a8 163d 14e9 243d
00000270: 44e1 84bd 75ac a93d 0a7f 343d 5ab8 913d
00000280: ff49 08bb cea7 453d 3c82 1c3d 62c6 47bd
00000290: c319 7fbd c0f3 593b 98a7 75bc 789d 5d3c
000002a0: 6a43 083d c078 a93b dc91 df3c 3076 14bd
000002b0: 441c 653d d81c 90bc b032 ca3c 2677 87bc
000002c0: f0eb 963b 9afa 903d a411 893d 0b51 1abd
000002d0: 8000 4e3a 02e2 e1bc e4d6 813c b837 53bc
000002e0: 40a1 5a3c d444 4e3d 80a3 2dbd 571a 13bd
000002f0: e22d 893d fc3f e53c 68b0 403d 92c9 103d
00000300: 2aac 803d ec9c 823d a476 ec3c 6470 82bc
00000310: 9cf2 73bd 907b 6d3d ba5e e3bc 747e 8ebd
00000320: a0c8 e03c 72d9 9abd 648c 093d 0782 82bd
00000330: d85c 583d 58da 8dbc 7040 ecbc 842d 893c
00000340: 945c 7cbd abbe 7ebd f616 263d e2d9 96bd
00000350: 6c5d b93c 4008 073b 60ca 2e3c 547a 2ebd
00000360: c711 543d 1961 0fbc 6131 4a3d 4d4b 703d
00000370: d969 de3c 9b5a 34bd 81a8 063d 7f99 8dbd
00000380: 9d4f 533d 3528 76bd 557e 8d3d 9536 693d
00000390: 4da4 453d 04db a23a 445b 983c 53e7 823d
000003a0: 6fed ebbc d371 0f3d 7200 1a3d c006 ba3c
000003b0: 26d8 f73c 6f15 79bd 6b5c 4a3d b70d 2dbd
000003c0: d715 8f3d a537 c13c d268 1dbc ac53 843d
000003d0: e68d 943d b483 6ebd 7da7 dd3c 4f70 70bc
000003e0: fa5b 6ebd 823a ad3d 54f2 b73c ce00 923d
000003f0: 83de f43c 5919 2e3d b547 32bc 1ec3 7bbd
-0.02433702 0.04820825 -0.04844494 -0.0031770244 0.03946162 0.025336571 0.01566048 0.068823785
-0.05457417 -0.04005791 0.07239175 -0.014821209 0.009008616 0.066872075 -0.07457165 -0.048606463
0.044919223 0.037617914 -0.059822906 -0.06975652 -0.04089089 -0.0587793 0.037814394 -0.02952819
-0.0079378635 -0.07213342 -0.04912159 0.07368225 -0.061020914 0.005463928 0.029087454 0.058360875
-0.002347447 0.058339357 -0.0077034384 0.03072536 -0.03519807 0.022601262 -0.055233687 -0.028487194
0.031287998 -0.011577956 0.069615364 0.030202873 -0.065013245 -0.06386033 -0.054311693 0.07772516
0.071422786 -0.044892438 -0.028068729 -0.04215042 0.043859296 -0.008924799 -0.017564224 -0.056475375
0.018311277 -0.0026388746 -0.073816754 -0.015946424 -0.03163676 -0.06396242 -0.046039976 0.00636354
0.050203636 -0.06648768 -0.061203826 -0.03637176 0.0320663 -0.04426985 -0.07582536 0.06112106
0.036829166 -0.047563188 0.002390578 -0.02800891 0.026530927 -0.061984777 0.017461933 -0.058250416
0.04287404 0.0031930502 -0.042890906 -0.044376742 -0.0099789845 -0.026055882 -0.06159473 0.07505867
-0.049017347 0.046298265 -0.029445058 0.042759225 0.018881612 0.04036981 0.03706351 0.0028343645
-0.025174592 -0.059717946 0.0474938 0.015540523 -0.01960891 -0.030765962 -0.015608316 -0.06307447
0.03381389 -0.06353461 0.00826336 -0.020261016 0.017702306 -0.07508819 -0.015628697 -0.037153937
0.012347682 0.0632534 -0.05746126 -0.02544287 -0.057222698 -0.042439807 -0.024050854 0.074722394
0.038894564 0.015105985 0.038561177 0.024018353 -0.051975623 -0.03507068 -0.07576666 0.04834138
-0.067305386 0.00695753 -0.036467254 0.016024971 -0.04828304 0.01041927 0.015030444 -0.008625978
0.029787652 0.0347594 0.007558711 0.0068451017 0.032563604 0.08348591 -0.051551916 0.012584917
0.05256387 0.010762339 0.014516477 0.07932269 -0.02693049 -0.060387272 -0.052040525 -0.031945486
0.051385622 0.023629779 0.036781743 0.040261343 -0.064882785 0.08284847 0.044066466 0.071152404
-0.0020796058 0.048255734 0.03821014 -0.048773177 -0.062280428 0.0033256859 -0.014993571 0.013526313
0.033267416 0.005171865 0.02729123 -0.036245525 0.05593516 -0.017591879 0.024682373 -0.016536307
0.0046057627 0.070790485 0.06692818 -0.037674945 0.0007858351 -0.02757359 0.015849538 -0.012891702
0.013344109 0.05035861 -0.042392254 -0.03591379 0.066982046 0.027984612 0.047043234 0.035348482
0.06282838 0.06377587 0.028865166 -0.015922733 -0.059557542 0.057979167 -0.02775513 -0.06957713
0.027439415 -0.07561006 0.033581153 -0.06372457 0.052822918 -0.017316028 -0.02883932 0.016745336
-0.061611727 -0.062193554 0.04054924 -0.073657766 0.022627555 0.0020604283 0.010668367 -0.04259713
0.051774766 -0.008751177 0.049363498 0.058665562 0.027150081 -0.04403172 0.03287554 -0.06914043
0.051589597 -0.06009694 0.069088615 0.05693682 0.048252393 0.0012424891 0.018598206 0.06391778
-0.02879974 0.03502066 0.03759808 0.022708297 0.030254435 -0.060811456 0.049404543 -0.042249408
0.069865875 0.023586104 -0.009607511 0.06461272 0.072536275 -0.05823107 0.027057404 -0.014675214
-0.058193184 0.08458425 0.022454418 0.0712906 0.029891258 0.042504642 -0.010881354 -0.061465375

fc1.bias f4 [96]
00000000: 760b 243d e50b 28bd dbd5 94bd f0e2 49bc
00000010: a619 1abd ba05 90bd 8ce9 5a3d 8c0f c83c
00000020: fb00 8cbd aa27 893c bf71 85bd aabc 72bd
00000030: d415 863d 77e3 093d f93c dd3c 6141 2fbd
00000040: 854d 58bd 4ded f03c b39f 363d 6005 273d
00000050: 577d 03bc b815 febb 2316 283c 9d0d 003d
00000060: 0d3d 003c 4cbb 213d ea04 793c 79a1 843d
00000070: 8b36 f9bc b316 983c 9ce4 353d 4201 74bd
00000080: 2c18 113d f861 0f3d da71 043d 1ae1 203d
00000090: 5a43 8eba 3f00 66bc cf6e 17bd aa5b 0c3c
000000a0: 3a23 cdbc 041e 913d 31ac 0ebd 8a76 a8bd
000000b0: 0b46 cfbc 6a84 9f3a 3900 7c3d 10a7 193d
000000c0: 77cd 923d 5d06 51bb 0237 193d ad94 86bc
000000d0: 03d1 2e3d 2b46 bdbb 5037 afbc 844d 0d3d
000000e0: 092c 81bd e071 d0bb 9763 343d 9d1e 50bd
000000f0: ec50 c73c ac9e 4c3d 5a26 893d 5db8 9d3b
00000100: 1d17 be3c 9e5c 353b e405 81bd 4dd2 5b3b
00000110: d8ed 0d3c 40e6 a53c 9837 273d df1d 7e3d
00000120: d478 073c b874 223d 92cf bebc 3738 00bc
00000130: 382f bb3c ea38 823c 1654 8fbd eb30 29bd
00000140: 40a3 4dbd 0bef 69bd da99 4cbd a1e4 583d
00000150: 107d 3dbd 086c 33bc 62fe c83c cccb 803d
00000160: 14a4 4bbd e9bc 6b3d 359f c33b 2dc0 b73b
00000170: badb 30bd 4983 b7bc 2d31 723c e35e 37bd
0.040049993 -0.04102697 -0.07267352 -0.0123221725 -0.037622117 -0.07032342 0.053445384 0.024421476
-0.068361245 0.016742546 -0.06515836 -0.059261955 0.06547132 0.033664193 0.027006613 -0.04278696
-0.052808303 0.029410029 0.044585895 0.04077661 -0.008025489 -0.007754054 0.010259184 0.031262983
0.007827056 0.03948526 0.0151989255 0.06476111 -0.030421516 0.018565511 0.044407472 -0.059571512
0.035423443 0.03500554 0.03233514 0.039277174 -0.0010853813 -0.014038145 -0.03697091 0.008566776
-0.025041211 0.07085803 -0.034832183 -0.082257345 -0.025301954 0.00121702 0.06152365 0.03751284
0.071680956 -0.0031894662 0.037405975 -0.016428316 0.042679798 -0.005776187 -0.02138868 0.034497753
-0.06307227 -0.006361231 0.04404029 -0.050810445 0.024330579 0.04995601 0.06696768 0.0048132376
0.02320438 0.0027673612 -0.06299952 0.0033542097 0.008662663 0.020251393 0.040824503 0.062040206
0.008268554 0.039662093 -0.023292337 -0.007825903 0.022849664 0.01589628 -0.0699846 -0.041306417
-0.050204515 -0.057112735 -0.04995141 0.052952413 -0.046261847 -0.01095105 0.024535362 0.06288871
-0.049717024 0.057553206 0.0059699067 0.005607626 -0.043178298 -0.022401469 0.014782232 -0.044768225

fc2.weight f4 [1, 96]
00000000: 4800 53bc 9403 0dbd d02b a53b 500f da3c
00000010: 3538 96bd 5862 e33c 7d17 f1bc 9525 42bd
00000020: ae94 903d a2c3 be3c 56ed e33d f6a7 0bbd
00000030: b450 4e3d 5f4a 883d 07d4 503d d497 f33c
00000040: 6d47 b73d 9b74 84bd b59a 13bd 1839 233c
00000050: b362 363d 37e0 58bc 86a3 44bd b5e3 db3c
00000060: 278d 793d 8ebf 423d 4239 da3b 00f3 a93d
00000070: a849 56bd 69f6 aabd 6685 fabd b888 053d
00000080: cdd6 c9bd 9e48 81bd c781 f8bc 94f9 0dbd
00000090: 8a09 613d 7ceb 903d bc65 d13d 18ca 11bd
000000a0: 79cd 65bd 2166 653d 6027 a5bd 48fe c1bd
000000b0: df7d 493d 8330 003e 6179 0fbd 3b3d 92bd
000000c0: e20b df3d 3582 e23d 02b4 b5bd 853b cebc
000000d0: 2203 7d3d 9a26 163d 1bae b7bd 68c7 2c3c
000000e0: cb47 b3bb 67eb 9dbd f314 953d b905 983d
000000f0: 8ceb 1cbd a048 9e3d 09be ad3d c915 9e3d
00000100: 7432 48bd 6617 0e3e 6ae1 63bd 4027 4b3d
00000110: a0e2 b5bd 0939 693d 6cde b13d d4c9 a93d
00000120: b3cc 9dbd 7122 7d3d 13be 513c 6794 f03d
00000130: 1f5c edbc f08e 09be 11b1 b03d 97fe a73d
00000140: 34ac 73bb 61d3 96bd 04f5 48bd 9788 c8bd
00000150: 2a8b 2c3c ccbc e3bc eb7f 91bd 7562 dbbc
00000160: 4297 163d dee3 063d 7483 aebd e8dc 7a3d
00000170: b8ea 0a3c 18f0 b63d a1fe 1f3d 011c 46bd
-0.012878485 -0.03442724 0.0050406232 0.02661863 -0.073349394 0.027756855 -0.029430145 -0.047399122
0.070596084 0.023286644 0.111292526 -0.034095727 0.050369933 0.0665481 0.050983455 0.029735483
0.0894917 -0.06467553 -0.036036212 0.009962343 0.04452772 -0.013237051 -0.04800751 0.026841978
0.06092563 0.047545962 0.0066596577 0.08298302 -0.052316338 -0.0834778 -0.12232475 0.03260109
-0.09855423 -0.06312679 -0.03033532 -0.034661844 0.054940738 0.07076165 0.102244824 -0.035593122
-0.056104157 0.0560056 -0.08064151 -0.094723284 0.049192306 0.12518506 -0.035027865 -0.07140585
0.10890938 0.11059991 -0.088722244 -0.025174865 0.061770566 0.036657907 -0.08968755 0.010545589
-0.005471205 -0.07710915 0.07279386 0.074229665 -0.038310573 0.07728696 0.08483512 0.07718999
-0.04887624 0.13876113 -0.055634893 0.04959798 -0.08881116 0.05693916 0.08685002 0.08290449
-0.07705059 0.061800424 0.012801665 0.117470555 -0.02897459 -0.13433433 0.08627523 0.08202856
-0.0037181498 -0.07364536 -0.04906179 -0.097916774 0.010531226 -0.027799986 -0.071044765 -0.026780346
0.036765344 0.032932155 -0.085211664 0.06124583 0.008478813 0.08932513 0.039061192 -0.04836655

exp_avg f4 [128, 163]
00000000: 0000 0000 0000 0000 a64e 53a1 a64e 53a1
00000010: 0000 0000 1ab9 5223 0000 0000 0000 0000
00000020: 0000 0000 0000 0000 0000 0000 0000 0000
00000030: 2184 4523 0000 0000 0000 0000 1ab9 5223
00000040: 2791 f0a0 0000 0000 4ca7 8d1c a64e 53a1
00000050: 0000 0000 71f8 5223 0000 0000 7aa8 1ea0
00000060: 0000 0000 2184 4523 0000 0000 0000 0000
00000070: 0000 0000 0000 0000 0000 0000 0000 0000
00000080: 0000 0000 0000 0000 1ab9 5223 0000 0000
00000090: 0000 0000 4ca7 8d1c 0000 0000 0000 0000
000000a0: 2287 5323 0000 0000 0000 0000 1ab9 5223
000000b0: 9cda 5323 0000 0000 0000 0000 0000 0000
000000c0: 0000 0000 1ab9 5223 0000 0000 1ab9 5223
000000d0: 0000 0000 a208 4d23 1ab9 5223 1ab9 5223
000000e0: 1ab9 5223 1ab9 5223 1ab9 5223 1ab9 5223
000000f0: 1ab9 5223 c9fe 4723 1ab9 5223 1ab9 5223
00000100: 1ab9 5223 1ab9 5223 bf44 4523 bf44 4523
00000110: b57f 4523 a208 4d23 a162 4423 b57f 4523
00000120: 1ab9 5223 b57f 4523 bf44 4523 bf44 4523
00000130: c9fe 4723 b57f 4523 1ab9 5223 13b6 4423
00000140: 2184 4523 b57f 4523 a208 4d23 1ab9 5223
00000150: 2184 4523 2184 4523 b57f 4523 b57f 4523
00000160: 2184 4523 13b6 4423 b57f 4523 13b6 4423
00000170: c9fe 4723 13b6 4423 1ab9 5223 bf44 4523
00000180: bf44 4523 a162 4423 a162 4423 bf44 4523
00000190: c9fe 4723 1ab9 5223 a208 4d23 c9fe 4723
000001a0: 1ab9 5223 0000 0000 0013 4a23 1dec a61e
000001b0: 1d35 a4a0 e63c a120 0000 0000 0000 0000
000001c0: 0000 0000 0000 0000 0000 0000 0000 0000
000001d0: 0000 0000 84a4 2ba1 0000 0000 0000 0000
000001e0: 0000 0000 0000 0000 0000 0000 0000 0000
000001f0: 0000 0000 0000 0000 4861 0aa1 1ab9 5223
00000200: 0000 0000 0000 0000 0000 0000 0000 0000
00000210: 0000 0000 0000 0000 0000 0000 1dec a61e
00000220: 0000 0000 0000 0000 0000 0000 0000 0000
00000230: 0000 0000 0000 0000 0000 0000 0000 0000
00000240: 0000 0000 1dec a61e 0000 0000 1dec a61e
00000250: 84a4 2ba1 0000 0000 0000 0000 7db8 0e1f
00000260: 7db8 0e1f 0000 0000 4861 0aa1 7db8 0e1f
00000270: 84a4 2ba1 0000 0000 e63c a120 0000 0000
00000280: 0000 0000 a208 4d23 c9fe 4723 7040 7034
00000290: f5ff e432 fc36 2b34 ea41 0ab0 38ef 6cb1
000002a0: 7a05 7a34 a677 8232 a680 ef32 c6ab ea33
000002b0: e725 8033 aa08 d433 b9fa 5f32 9e62 6db2
000002c0: 66ef a731 5685 5633 378b 2a32 944f cb33
000002d0: c20b 75b3 5374 fa33 8d97 2930 7842 aa33
000002e0: b396 b833 78c4 1934 c1f5 0234 5c58 91b2
000002f0: 94f9 de31 7c54 4c33 0000 0000 42c9 0634
00000300: ca8a 2132 b611 e8b2 cec7 0a34 1c91 e831
00000310: 5fe4 1034 34cb 8fb3 2926 d3b2 799f 28b3
00000320: 39e7 4033 367e 0634 f066 7232 068c 1933
00000330: ddf9 d833 5fce 7633 0da4 8634 807b ef2f
00000340: 5c08 b4b1 6212 0f32 4a6d 7832 9624 3634
00000350: 8a9e f133 1206 5a33 6fcb 0e34 0000 0000
00000360: 5020 8334 5020 8334 5020 8334 5020 8334
00000370: 5020 8334 5020 8334 5020 8334 5020 8334
00000380: 5020 8334 5020 8334 5020 8334 5020 8334
00000390: 5020 8334 5020 8334 5020 8334 5020 8334
000003a0: 5020 8334 5020 8334 5020 8334 5020 8334
000003b0: 5020 8334 5020 8334 5020 8334 5020 8334
000003c0: 5020 8334 5020 8334 5020 8334 5020 8334
000003d0: 5020 8334 5020 8334 5020 8334 5020 8334
000003e0: 5020 8334 5020 8334 5020 8334 5020 8334
000003f0: 5020 8334 5020 8334 5020 8334 5020 8334
0.0 0.0 -7.159367e-19 -7.159367e-19 0.0 1.142332e-17 0.0 0.0
0.0 0.0 0.0 0.0 1.0707371e-17 0.0 0.0 1.142332e-17
-4.0753635e-19 0.0 9.373843e-22 -7.159367e-19 0.0 1.1436732e-17 0.0 -1.3438865e-19
0.0 1.0707371e-17 0.0 0.0 0.0 0.0 0.0 0.0
0.0 0.0 1.142332e-17 0.0 0.0 9.373843e-22 0.0 0.0
1.1466948e-17 0.0 0.0 1.142332e-17 1.1484625e-17 0.0 0.0 0.0
0.0 1.142332e-17 0.0 1.142332e-17 0.0 1.11149e-17 1.142332e-17 1.142332e-17
1.142332e-17 1.142332e-17 1.142332e-17 1.142332e-17 1.142332e-17 1.08417645e-17 1.142332e-17 1.142332e-17
1.142332e-17 1.142332e-17 1.0693949e-17 1.0693949e-17 1.07064344e-17 1.11149e-17 1.0646067e-17 1.07064344e-17
1.142332e-17 1.07064344e-17 1.0693949e-17 1.0693949e-17 1.08417645e-17 1.07064344e-17 1.142332e-17 1.0663737e-17
1.0707371e-17 1.07064344e-17 1.11149e-17 1.142332e-17 1.0707371e-17 1.0707371e-17 1.07064344e-17 1.07064344e-17
1.0707371e-17 1.0663737e-17 1.07064344e-17 1.0663737e-17 1.08417645e-17 1.0663737e-17 1.142332e-17 1.0693949e-17
1.0693949e-17 1.0646067e-17 1.0646067e-17 1.0693949e-17 1.08417645e-17 1.142332e-17 1.11149e-17 1.08417645e-17
1.142332e-17 0.0 1.0954465e-17 1.7673588e-20 -2.7817828e-19 2.731476e-19 0.0 0.0
0.0 0.0 0.0 0.0 0.0 -5.815479e-19 0.0 0.0
0.0 0.0 0.0 0.0 0.0 0.0 -4.688497e-19 1.142332e-17
0.0 0.0 0.0 0.0 0.0 0.0 0.0 1.7673588e-20
0.0 0.0 0.0 0.0 0.0 0.0 0.0 0.0
0.0 1.7673588e-20 0.0 1.7673588e-20 -5.815479e-19 0.0 0.0 3.0222275e-20
3.0222275e-20 0.0 -4.688497e-19 3.0222275e-20 -5.815479e-19 0.0 2.731476e-19 0.0
0.0 1.11149e-17 1.08417645e-17 2.2375184e-07 2.665909e-08 1.5945619e-07 -5.0297777e-10 -3.44785e-09
2.3285057e-07 1.5188402e-08 2.7881764e-08 1.09277195e-07 5.967359e-08 9.873595e-08 1.3037316e-08 -1.3817639e-08
4.887556e-09 4.9947026e-08 9.926956e-09 9.467399e-08 -5.70542e-08 1.16626914e-07 6.169721e-10 7.9283325e-08
8.59558e-08 1.432071e-07 1.2196598e-07 -1.6920403e-08 6.489424e-09 4.757429e-08 0.0 1.255294e-07
9.40299e-09 -2.7016409e-08 1.292494e-07 6.7685857e-09 1.3494126e-07 -6.695919e-08 -2.4580986e-08 -3.9260588e-08
4.491378e-08 1.2525638e-07 1.4109659e-08 3.575044e-08 1.0103734e-07 5.746403e-08 2.5078808e-07 4.35616e-10
-5.23964e-09 8.327875e-09 1.4460349e-08 1.6963381e-07 1.1251275e-07 5.07626e-08 1.3298789e-07 0.0
2.4424162e-07 2.4424162e-07 2.4424162e-07 2.4424162e-07 2.4424162e-07 2.4424162e-07 2.4424162e-07 2.4424162e-07
2.4424162e-07 2.4424162e-07 2.4424162e-07 2.4424162e-07 2.4424162e-07 2.4424162e-07 2.4424162e-07 2.4424162e-07
2.4424162e-07 2.4424162e-07 2.4424162e-07 2.4424162e-07 2.4424162e-07 2.4424162e-07 2.4424162e-07 2.4424162e-07
2.4424162e-07 2.4424162e-07 2.4424162e-07 2.4424162e-07 2.4424162e-07 2.4424162e-07 2.4424162e-07 2.4424162e-07
2.4424162e-07 2.4424162e-07 2.4424162e-07 2.4424162e-07 2.4424162e-07 2.4424162e-07 2.4424162e-07 2.4424162e-07

exp_avg_sq f4 [128, 163]
00000000: 0000 0000 0000 0000 6ec5 c02e 6ec5 c02e
00000010: 0000 0000 b35f 4c32 0000 0000 0000 0000
00000020: 0000 0000 0000 0000 0000 0000 0000 0000
00000030: 45e1 4d32 0000 0000 0000 0000 b35f 4c32
00000040: 88da f92d 0000 0000 8942 2d25 6ec5 c02e
00000050: 0000 0000 d55f 4c32 0000 0000 c05a 592c
00000060: 0000 0000 45e1 4d32 0000 0000 0000 0000
00000070: 0000 0000 0000 0000 0000 0000 0000 0000
00000080: 0000 0000 0000 0000 b35f 4c32 0000 0000
00000090: 0000 0000 8942 2d25 0000 0000 0000 0000
000000a0: 2261 4c32 0000 0000 0000 0000 b35f 4c32
000000b0: 7e62 4c32 0000 0000 0000 0000 0000 0000
000000c0: 0000 0000 b35f 4c32 0000 0000 b35f 4c32
000000d0: 0000 0000 3da7 4c32 b35f 4c32 b35f 4c32
000000e0: b35f 4c32 b35f 4c32 b35f 4c32 b35f 4c32
000000f0: b35f 4c32 0c5e 4d32 b35f 4c32 b35f 4c32
00000100: b35f 4c32 b35f 4c32 ccef 4d32 ccef 4d32
00000110: 45e2 4d32 3da7 4c32 1626 4e32 45e2 4d32
00000120: b35f 4c32 45e2 4d32 ccef 4d32 ccef 4d32
00000130: 0c5e 4d32 45e2 4d32 b35f 4c32 a911 4e32
00000140: 45e1 4d32 45e2 4d32 3da7 4c32 b35f 4c32
00000150: 45e1 4d32 45e1 4d32 45e2 4d32 45e2 4d32
00000160: 45e1 4d32 a911 4e32 45e2 4d32 a911 4e32
00000170: 0c5e 4d32 a911 4e32 b35f 4c32 ccef 4d32
00000180: ccef 4d32 1626 4e32 1626 4e32 ccef 4d32
00000190: 0c5e 4d32 b35f 4c32 3da7 4c32 0c5e 4d32
000001a0: b35f 4c32 0000 0000 0805 4d32 4d96 7029
000001b0: 2bd3 682d e27a 602d 0000 0000 0000 0000
000001c0: 0000 0000 0000 0000 0000 0000 0000 0000
000001d0: 0000 0000 0163 7e2e 0000 0000 0000 0000
000001e0: 0000 0000 0000 0000 0000 0000 0000 0000
000001f0: 0000 0000 0000 0000 2658 252e b35f 4c32
00000200: 0000 0000 0000 0000 0000 0000 0000 0000
00000210: 0000 0000 0000 0000 0000 0000 4d96 7029
00000220: 0000 0000 0000 0000 0000 0000 0000 0000
00000230: 0000 0000 0000 0000 0000 0000 0000 0000
00000240: 0000 0000 4d96 7029 0000 0000 4d96 7029
00000250: 0163 7e2e 0000 0000 0000 0000 4ce1 2f2a
00000260: 4ce1 2f2a 0000 0000 2658 252e 4ce1 2f2a
00000270: 0163 7e2e 0000 0000 e27a 602d 0000 0000
00000280: 0000 0000 3da7 4c32 0c5e 4d32 a2e9 1732
00000290: 7f10 2732 3fac 1132 c76d 0932 63c0 1331
000002a0: 2d0b 0f32 45c1 2731 af2f 1d32 12c9 5831
000002b0: 8c80 a131 a84c 5031 83e4 f530 688b b430
000002c0: a9a6 e631 2338 f831 deb7 962e 0d75 1332
000002d0: 26bf 1731 f44c c431 d090 2431 3ec0 1732
000002e0: 95af 1731 c84e d62f 59e1 e430 f878 1132
000002f0: e008 852e 0eac a730 0000 0000 720d e631
00000300: c542 8431 6a6c aa31 b093 f030 6293 be31
00000310: 32be 1a32 3442 0d32 0d87 3f31 e75f 9c31
00000320: ccae c830 138a 8331 631e ee30 4744 2e30
00000330: 0103 2932 ba2e eb31 1973 2b32 292f a031
00000340: 8e7c ad31 54c4 0531 4b79 5131 6979 c130
00000350: 961f c231 52eb b031 44b4 7531 0000 0000
00000360: c25f bf32 c25f bf32 c25f bf32 c25f bf32
00000370: c25f bf32 c25f bf32 c25f bf32 c25f bf32
00000380: c25f bf32 c25f bf32 c25f bf32 c25f bf32
00000390: c25f bf32 c25f bf32 c25f bf32 c25f bf32
000003a0: c25f bf32 c25f bf32 c25f bf32 c25f bf32
000003b0: c25f bf32 c25f bf32 c25f bf32 c25f bf32
000003c0: c25f bf32 c25f bf32 c25f bf32 c35f bf32
000003d0: c25f bf32 c25f bf32 c25f bf32 c35f bf32
000003e0: c35f bf32 c25f bf32 c25f bf32 c25f bf32
000003f0: c25f bf32 c25f bf32 c25f bf32 c25f bf32
0.0 0.0 8.76622e-11 8.76622e-11 0.0 1.1896122e-08 0.0 0.0
0.0 0.0 0.0 0.0 1.1983791e-08 0.0 0.0 1.1896122e-08
2.840507e-11 0.0 1.5027901e-16 8.76622e-11 0.0 1.18961525e-08 0.0 3.0887931e-12
0.0 1.1983791e-08 0.0 0.0 0.0 0.0 0.0 0.0
0.0 0.0 1.1896122e-08 0.0 0.0 1.5027901e-16 0.0 0.0
1.1896448e-08 0.0 0.0 1.1896122e-08 1.1896757e-08 0.0 0.0 0.0
0.0 1.1896122e-08 0.0 1.1896122e-08 0.0 1.1912388e-08 1.1896122e-08 1.1896122e-08
1.1896122e-08 1.1896122e-08 1.1896122e-08 1.1896122e-08 1.1896122e-08 1.1953954e-08 1.1896122e-08 1.1896122e-08
1.1896122e-08 1.1896122e-08 1.1987094e-08 1.1987094e-08 1.1984018e-08 1.1912388e-08 1.1999438e-08 1.1984018e-08
1.1896122e-08 1.1984018e-08 1.1987094e-08 1.1987094e-08 1.1953954e-08 1.1984018e-08 1.1896122e-08 1.1994794e-08
1.1983791e-08 1.1984018e-08 1.1912388e-08 1.1896122e-08 1.1983791e-08 1.1983791e-08 1.1984018e-08 1.1984018e-08
1.1983791e-08 1.1994794e-08 1.1984018e-08 1.1994794e-08 1.1953954e-08 1.1994794e-08 1.1896122e-08 1.1987094e-08
1.1987094e-08 1.1999438e-08 1.1999438e-08 1.1987094e-08 1.1953954e-08 1.1896122e-08 1.1912388e-08 1.1953954e-08
1.1896122e-08 0.0 1.19337145e-08 5.342107e-14 1.3234562e-11 1.2760211e-11 0.0 0.0
0.0 0.0 0.0 0.0 0.0 5.7840847e-11 0.0 0.0
0.0 0.0 0.0 0.0 0.0 0.0 3.7594948e-11 1.1896122e-08
0.0 0.0 0.0 0.0 0.0 0.0 0.0 5.342107e-14
0.0 0.0 0.0 0.0 0.0 0.0 0.0 0.0
0.0 5.342107e-14 0.0 5.342107e-14 5.7840847e-11 0.0 0.0 1.5621288e-13
1.5621288e-13 0.0 3.7594948e-11 1.5621288e-13 5.7840847e-11 0.0 1.2760211e-11 0.0
0.0 1.1912388e-08 1.1953954e-08 8.842479e-09 9.72443e-09 8.479275e-09 7.99941e-09 2.1500675e-09
8.326237e-09 2.441156e-09 9.149445e-09 3.1546432e-09 4.700331e-09 3.0311558e-09 1.7891043e-09 1.3136345e-09
6.712828e-09 7.224132e-09 6.8538716e-11 8.58314e-09 2.2082047e-09 5.7130993e-09 2.3947457e-09 8.833068e-09
2.2073199e-09 3.898235e-10 1.6653231e-09 8.467616e-09 6.049716e-11 1.219975e-09 0.0 6.6954096e-09
3.8492964e-09 4.9599764e-09 1.7504274e-09 5.5464833e-09 9.007225e-09 8.222333e-09 2.7870926e-09 4.5511004e-09
1.4601595e-09 3.828299e-09 1.7325416e-09 6.339786e-10 9.837778e-09 6.8447124e-09 9.97968e-09 4.6619744e-09
5.049123e-09 1.9465647e-09 3.048245e-09 1.4077105e-09 5.649734e-09 5.149027e-09 3.5754661e-09 0.0
2.2278872e-08 2.2278872e-08 2.2278872e-08 2.2278872e-08 2.2278872e-08 2.2278872e-08 2.2278872e-08 2.2278872e-08
2.2278872e-08 2.2278872e-08 2.2278872e-08 2.2278872e-08 2.2278872e-08 2.2278872e-08 2.2278872e-08 2.2278872e-08
2.2278872e-08 2.2278872e-08 2.2278872e-08 2.2278872e-08 2.2278872e-08 2.2278872e-08 2.2278872e-08 2.2278872e-08
2.2278872e-08 2.2278872e-08 2.2278872e-08 2.2278874e-08 2.2278872e-08 2.2278872e-08 2.2278872e-08 2.2278874e-08
2.2278874e-08 2.2278872e-08 2.2278872e-08 2.2278872e-08 2.2278872e-08 2.2278872e-08 2.2278872e-08 2.2278872e-08
